TinyVGG/modular_scripts/fruits_classification_modular/models/fruits_classification_modular.pth (torch, 160620 bytes, 10 tensors)

CONV1.0.weight f4 [10, 3, 3, 3]
0	0xbe4f390c	-0.20236605
1	0x3e2e5c1a	0.17027321
2	0x3dad29f7	0.0845527
3	0xbd718769	-0.058967028
4	0xbdd1d84f	-0.10246336
5	0xbdca7e7a	-0.09887405
6	0x3e3d8bd0	0.18510365
7	0xbd90fd25	-0.070795335
8	0xbe1edb50	-0.15513349
9	0xbd30b0a2	-0.0431372
10	0x3cdf5ee2	0.027266923
11	0x3d8359c7	0.06413608
12	0xbdfddddf	-0.12395834
13	0x3e0e0fd1	0.13873221
14	0x3d27b171	0.040940706
15	0xbe0b2e51	-0.13591887
16	0xbe249c1b	-0.16075175
17	0xbd91f818	-0.07127398
18	0xbe07e841	-0.13272192
19	0xbe370348	-0.17872345
20	0xbd368450	-0.044559777
21	0x3dfc571d	0.12321303
22	0xbd9e72ac	-0.07736716
23	0x3d1b49f4	0.037912324
24	0x3e44711d	0.19183774
25	0x3e4841b9	0.19556321
26	0x3de4e230	0.11175954
27	0xbe1ec174	-0.15503484
28	0xbe269ac5	-0.16269977
29	0x3df1e303	0.11810877
30	0xbd402de2	-0.046918757
31	0x3c3fd27b	0.011707897
32	0xbe068427	-0.1313635
33	0x3e155900	0.14584732
34	0x3dcceec1	0.10006476
35	0xbdf79da9	-0.12090618
36	0x3d31aa89	0.043375526
37	0xbe0b2adc	-0.13590568
38	0x3bd708de	0.0065623363
39	0x3e06cd22	0.1316419
40	0x3c86dc89	0.016462581
41	0x3d368f18	0.04457006
42	0xbdaf6f01	-0.08566094
43	0x3d0ebe9c	0.034849748
44	0x3e4fc410	0.20289636
45	0xbd637ae9	-0.055537138
46	0x3dde8170	0.10864532
47	0x3db6215b	0.08893081
48	0xbb7b814d	-0.003837663
49	0xbdd58973	-0.10426607
50	0xbc39b916	-0.011335632
51	0xbcbf975b	-0.023387602
52	0xbc6bbc69	-0.014388182
53	0x3e01c9f5	0.12674697
54	0xbe0080bb	-0.12549107
55	0x3db84ccd	0.089990236
56	0x3e1a933a	0.15095225
57	0x3d3716af	0.044699367
58	0x3daef963	0.085436605
59	0xbdabbd10	-0.0838567
60	0xbdc0d4d2	-0.09415592
61	0x3dc012b5	0.09378568
62	0xbdba355c	-0.09092209
63	0xbdd86fcf	-0.10568201
64	0x3e231849	0.15927233
65	0x3d3153ce	0.043292813
66	0x3e467447	0.19380294
67	0x3e23f604	0.16011816
68	0xbe215b0b	-0.15757386
69	0xbb74a990	-0.0037332512
70	0x3d8bf205	0.06833271
71	0x3dfff506	0.124979064
72	0x3dc15d1d	0.09441588
73	0xbd2e0e05	-0.04249384
74	0xb997e3af	-0.00028970602
75	0xbe09fb38	-0.13474739
76	0x3cf7d752	0.03025404
77	0x3d56d392	0.052447863
78	0xbc8894d5	-0.016672531
79	0xbe66abda	-0.22526494
80	0xbe4f5364	-0.20246655
81	0xbc1db7b7	-0.009626321
82	0x3dabd59d	0.08390353
83	0xbe0be9b4	-0.1366337
84	0x3e28fa81	0.1650181
85	0x3d9d340a	0.07675941
86	0xbcc8b93d	-0.024502391
87	0xbe45e1dd	-0.19324441
88	0xbd8e5083	-0.0694895
89	0x3e00a991	0.12564684
90	0x3e544f8b	0.20733468
91	0x3e543e66	0.20726928
92	0xbd594d52	-0.053052254
93	0xbd9bc86e	-0.07606588
94	0x3e602d09	0.2189218
95	0x3dfa0554	0.122080475
96	0x3e58c2bf	0.2116804
97	0x3e39c38c	0.18141001
98	0x3dc89759	0.09794492
99	0x3e104182	0.14087489
100	0xbe268cae	-0.16264603
101	0x3d41d260	0.04731977
102	0x3e0e7605	0.13912208
103	0xbd944be5	-0.07241038
104	0xbe073584	-0.13204008
105	0xbe36fb52	-0.17869309
106	0x3dabb127	0.083833985
107	0x3ddc2b11	0.10750402
108	0xbd8a9b68	-0.06767923
109	0x3dcebff7	0.10095208
110	0x3cc6ede9	0.024283366
111	0xbbcdce7a	-0.0062807174
112	0xbd3c7bab	-0.046016376
113	0xbb8907ef	-0.004181854
114	0x3e5acec1	0.21367933
115	0xba69f87f	-0.00089252734
116	0xbdba06bb	-0.09083315
117	0x3cb96d24	0.02263505
118	0xbdce900b	-0.10086068
119	0x3e50939b	0.20368807
120	0xbe1ae237	-0.15125357
121	0x3e71748e	0.23579618
122	0xbdae3ebb	-0.08508059
123	0x3de15c89	0.11003978
124	0x3e67e516	0.22645983
125	0x3e731aa6	0.23740634
126	0x3d445d4b	0.047940534
127	0x3cef0841	0.02917874
128	0xbdc2e733	-0.09516754
129	0xbcd035e6	-0.025416326
130	0x3d8a92d5	0.06766287
131	0xbd6898c0	-0.0567863
132	0xbe2bd7c9	-0.16781534
133	0xbe1735d5	-0.14766629
134	0x3e2d483f	0.16922091
135	0xbc6bd922	-0.01439503
136	0x3e15fade	0.1464648
137	0x3cec33f2	0.028833363
138	0x3dd5d543	0.10441067
139	0xba09b212	-0.000525267
140	0x3e215fbb	0.15759175
141	0x3e12c319	0.14332236
142	0xbde5a84c	-0.11213741
143	0x3d56f5b0	0.0524804
144	0xbd2dd16a	-0.04243604
145	0xbdf7d7c2	-0.121016994
146	0x3dbca423	0.09210994
147	0x3cca665d	0.024707014
148	0xbe621184	-0.22076994
149	0xbe299693	-0.16561346
150	0xbe0ec9d1	-0.13944174
151	0xbc877440	-0.016534925
152	0xbe08d3ba	-0.13362017
153	0x3e25d89f	0.16195916
154	0xbd5f875b	-0.054572444
155	0x3dde8b54	0.108664185
156	0x3e2b0a1d	0.16703077
157	0x3d6cfbc3	0.057857286
158	0x3e23281e	0.15933272
159	0x3d311b9c	0.04323922
160	0xbe046942	-0.12930778
161	0xbe1bbf00	-0.1520958
162	0x3d633401	0.055469517
163	0x3ca6b0f0	0.020348042
164	0xbe1ef4f7	-0.15523134
165	0xbcc24834	-0.02371607
166	0xbe16f1bd	-0.14740653
167	0xbdd498d8	-0.10380715
168	0x3d0f6c6e	0.035015516
169	0xbe150952	-0.14554337
170	0x3cc1b868	0.023647502
171	0xbdb3bb9e	-0.087760195
172	0xbe12ab52	-0.14323166
173	0x3df71722	0.12064959
174	0x3decc9b4	0.11561909
175	0x3e4bd929	0.19907059
176	0xbcdab5ab	-0.026697954
177	0xbe1ced5b	-0.15324919
178	0x3e61484a	0.22000232
179	0x3e3039db	0.1720957
180	0x3c1afef2	0.009460198
181	0x3e13cb34	0.14432985
182	0xbc2d34b0	-0.010571644
183	0x3e058aac	0.1304118
184	0xbda9ea3e	-0.08296631
185	0xbdf26a7b	-0.11836716
186	0x3e117baf	0.14207338
187	0x3ce98cd2	0.028509531
188	0xbc9947ca	-0.01871099
189	0xb9decfcf	-0.0004249797
190	0x3e4c0fac	0.19927853
191	0xbae277d8	-0.0017278148
192	0x3e003194	0.12518913
193	0xbe3a0e20	-0.18169451
194	0xbcc796e7	-0.024363948
195	0x3cbee93c	0.023304574
196	0x3c1eaf4c	0.009685349
197	0xbe025bff	-0.12730406
198	0xbdf38f12	-0.11892523
199	0xbdc79e98	-0.09747046
200	0xbdbc07e9	-0.09181196
201	0x3d27d4c6	0.0409744
202	0xbe2b9e8f	-0.16759704
203	0xbd5eea5e	-0.05442273
204	0xbcbc88c2	-0.02301443
205	0xbd0651b1	-0.03279275
206	0xbbb6a36c	-0.0055736806
207	0xbd973f2f	-0.07385098
208	0xbd022814	-0.031776503
209	0x3e28515e	0.16437289
210	0xbe4cdfbd	-0.20007224
211	0x3e1386ca	0.14406887
212	0xbe0e9280	-0.13923073
213	0xbc2da63a	-0.0105987135
214	0x3ca03332	0.019555662
215	0x3e414f58	0.18877923
216	0xbdd6d64f	-0.10490095
217	0xbdc73762	-0.0972736
218	0x3e02d873	0.12777881
219	0x3dafe1a0	0.085879564
220	0x3e35b7a4	0.17745835
221	0xbdd7660a	-0.10517509
222	0xbe24766c	-0.160608
223	0x3d8dfe65	0.069332875
224	0x3dfedc20	0.12444329
225	0xbddf4f0a	-0.109037474
226	0xbe09ff9f	-0.13476418
227	0xbe1a8fea	-0.15093961
228	0x3dd71588	0.10502154
229	0x3d73dc8e	0.05953651
230	0xbe261401	-0.16218568
231	0xbdf70878	-0.12062162
232	0xbd8083ad	-0.06275115
233	0xbde15fff	-0.11004638
234	0xbd05bd14	-0.032651022
235	0x3df5a916	0.11995141
236	0x3e3a06b1	0.18166615
237	0xbdab4ab1	-0.08363856
238	0x3e366f4e	0.17815897
239	0x3d0ac1da	0.033876278
240	0xbcd627ac	-0.026141964
241	0x3e019d0f	0.1265757
242	0xbe18c691	-0.14919497
243	0x3d113ec9	0.035460267
244	0x3e05fabd	0.1308393
245	0xbdfb6196	-0.122744724
246	0x3d64514b	0.05574159
247	0x3e47c27e	0.19507787
248	0x3e10319a	0.14081421
249	0x3b7a0a2f	0.0038153043
250	0x3d9d8d60	0.07692981
251	0x3c23ce91	0.00999798
252	0xbe1c3934	-0.15256196
253	0x3c45b9e9	0.01206825
254	0x3d1aea77	0.03782126
255	0xbe501218	-0.20319402

CONV1.0.bias f4 [10]
0	0xbe10aaaa	-0.14127603
1	0x3db7a8b9	0.08967728
2	0xbda918c6	-0.08256678
3	0xbdc96074	-0.0983285
4	0xbdcf129f	-0.101109736
5	0x3ddea6d5	0.108716644
6	0x3daa5d93	0.08318629
7	0xbe2b7d66	-0.16747054
8	0xbe277778	-0.16354167
9	0xbdd3672e	-0.10322414

CONV1.2.weight f4 [10, 10, 3, 3]
0	0xbd492220	-0.04910481
1	0x3dea18d5	0.114305176
2	0xbd32f137	-0.04368707
3	0x3e16607e	0.14685246
4	0x3d920c7c	0.071312875
5	0x3dabfa1b	0.08397313
6	0xbd56325e	-0.052294128
7	0x3e14417a	0.14478102
8	0x3e0ae2f7	0.13563143
9	0x3d538da4	0.05164875
10	0xbd94fb40	-0.07274485
11	0xbd2c8a5a	-0.04212413
12	0x3cebc183	0.028778797
13	0xbe353274	-0.17695028
14	0xbd7c70a3	-0.061630856
15	0x3be364f4	0.006939525
16	0x3cc79f46	0.02436794
17	0xbd9ae6d4	-0.07563558
18	0x3d2bc18a	0.04193262
19	0xbca582fc	-0.02020406
20	0xbd5a92e3	-0.05336274
21	0x3ceeba4a	0.029141564
22	0x3d3338b2	0.04375524
23	0x3cd597ef	0.026073424
24	0xbc8c4979	-0.017124878
25	0x3dcc5169	0.09976465
26	0x3d89e60c	0.06733331
27	0xbd959efc	-0.073057145
28	0xbd224d61	-0.039624576
29	0xbc810fa5	-0.01575453
30	0x3cc04870	0.02347204
31	0xbd75640b	-0.05990986
32	0xbdc16d72	-0.09444703
33	0x3d4cadc5	0.049970407
34	0xbdf087ea	-0.117446736
35	0xbd287968	-0.041131407
36	0xbd975e2f	-0.07391011
37	0xbd653385	-0.055957336
38	0x3c9fa1ea	0.019486386
39	0xbc598c5d	-0.013278094
40	0xbdce25bc	-0.10065791
41	0xbd58aeed	-0.052901197
42	0xbc9850c5	-0.018593201
43	0xbd0affdb	-0.03393541
44	0xbdc04dc6	-0.09389834
45	0x3d83849d	0.06421778
46	0xbc2ba56e	-0.010476453
47	0x3de8d4f0	0.113687396
48	0xbd224455	-0.039615948
49	0x3d86776d	0.065657474
50	0x3daa8a53	0.083271645
51	0x3d8e6a88	0.06953913
52	0x3d9ae911	0.07563985
53	0x3d86127a	0.06546493
54	0xbdb42f97	-0.087981395
55	0xbdc39ff5	-0.09551994
56	0x3c815c1d	0.015790993
57	0x3daf02db	0.085454665
58	0x3d18176b	0.037131708
59	0xbda165d9	-0.07880754
60	0xbdbe02b0	-0.09277856
61	0x3d71b215	0.059007723
62	0xbc7be64a	-0.015374729
63	0x3d3ae321	0.045626763
64	0xbd8881d7	-0.0666539
65	0xbd9503d0	-0.07276118
66	0xbd913b42	-0.07091381
67	0xbe0fcf6d	-0.1404397
68	0xbd98fcc9	-0.0747009
69	0xbd66cf91	-0.056350295
70	0xbc866133	-0.01640377
71	0x3d8fe793	0.07026591
72	0xbda4440a	-0.0802079
73	0x3c5f4a40	0.013628542
74	0xbdc2f36e	-0.09519087
75	0x3cf452cc	0.029824637
76	0xbd0d1e9a	-0.034453012
77	0x3de17081	0.110077865
78	0x3d9eed21	0.077600725
79	0xbd8eff5e	-0.06982301
80	0xbd980153	-0.074221276
81	0x3db9c726	0.09071188
82	0xbbf31e59	-0.007419389
83	0x3dda770b	0.10667237
84	0x3ce545d5	0.0279874
85	0x3dec2359	0.115301795
86	0xbccb0dc6	-0.024786841
87	0x3d6ad57b	0.057332497
88	0xbcc2b267	-0.02376671
89	0x3bc639fb	0.0060493923
90	0xbc13eccf	-0.009028628
91	0x3be17c0a	0.0068812417
92	0xbd7d2997	-0.06180724
93	0x3de5e4e7	0.112253
94	0x3d7c432f	0.06158751
95	0x3d9f35ac	0.07773909
96	0xbc144a13	-0.009050864
97	0xbb1aadb2	-0.0023602066
98	0x3cc20ce2	0.023687784
99	0xbc00ca32	-0.007860707
100	0xbe0cecb8	-0.13762176
101	0xbdcddb9b	-0.10051652
102	0xbe50cac8	-0.20389855
103	0xbdbd6676	-0.092480585
104	0xbd72adab	-0.059247654
105	0xbe00eebb	-0.12591068
106	0xbd3588e0	-0.044319987
107	0xbd1d3e28	-0.038389355
108	0xbd71d2b3	-0.05903883
109	0xbd95a196	-0.07306211
110	0x3d93bb11	0.072134145
111	0xbd2c52f2	-0.04207129
112	0xbd9b515f	-0.0758388
113	0xbb503a0f	-0.0031772887
114	0xbd76b8ae	-0.060234718
115	0x3d8d9c56	0.06914584
116	0x3c177a19	0.009245419
117	0xbd7dfa12	-0.062006064
118	0x3d666fec	0.05625908
119	0xbca97f7d	-0.020690674
120	0xbe049fdc	-0.12951607
121	0xbe07376c	-0.13204736
122	0x3cb131eb	0.021630248
123	0x3d00fb94	0.031489924
124	0x3ccd4e2b	0.025061687
125	0xbdd03962	-0.10167195
126	0xbdbaf017	-0.09127825
127	0x3dbd1c15	0.09233872
128	0xbd58552f	-0.052815612
129	0xbd5484a0	-0.051884294
130	0xbd850475	-0.06494991
131	0xbd2a04ed	-0.041508604
132	0x3cdd8c47	0.027044429
133	0xbda33e4a	-0.07970865
134	0x3b9be216	0.004757176
135	0x3d9f633b	0.077825986
136	0x3d0e98ca	0.03481368
137	0xbc5737d1	-0.013135866
138	0x3d05cbec	0.03266518
139	0x3e10ee80	0.1415348
140	0x3db0b34a	0.08627947
141	0x3e1434aa	0.14473215
142	0x3d974e67	0.07388001
143	0x3b1dc8c0	0.0024075955
144	0xbc56f04b	-0.013118814
145	0xbe00086f	-0.12503217
146	0xbd97898c	-0.07399282
147	0xbd59ffd8	-0.053222507
148	0xbe23720d	-0.15961476
149	0xbcd3efdc	-0.02587121
150	0x3d835369	0.064123936
151	0xbd5d205c	-0.05398594
152	0xbc4dfb39	-0.012572103
153	0xbb8a3734	-0.0042180065
154	0x3cace5c0	0.021105647
155	0xbd1888b2	-0.037239738
156	0x3d9aecdc	0.075647086
157	0xbe0fb7f9	-0.14035024
158	0xbdd89bee	-0.10576616
159	0xbd850644	-0.06495336
160	0xbde61878	-0.11235136
161	0x3cec8a9c	0.028874688
162	0xbc5126f3	-0.012765634
163	0xbd82289c	-0.06355402
164	0xbd9ccef8	-0.07656664
165	0xba667ebe	-0.000879269
166	0x3cf67308	0.030084148
167	0xbd5075dd	-0.050893653
168	0xbe275402	-0.1634064
169	0xbde04bbe	-0.10951947
170	0xbbf3fa8b	-0.0074456385
171	0x3d804186	0.062624976
172	0x3e05e6b0	0.13076282
173	0xbc8c7606	-0.017146122
174	0x3d79e1f8	0.061006516
175	0x3d2a5d30	0.041592777
176	0x3df33b16	0.11876504
177	0x3de135a7	0.109965615
178	0xbd33a16a	-0.04385511
179	0x3dca983e	0.09892319
180	0xbe093e9b	-0.13402788
181	0xbd2ac82b	-0.0416948
182	0xbd182c8d	-0.037151862
183	0xbcb15cfc	-0.021650784
184	0x3d879a43	0.0662122
185	0x3dee22b1	0.116277106
186	0x3db7b3e2	0.08969857
187	0x3da6e461	0.081490286
188	0xbd2682c2	-0.040652044
189	0x3d0f9478	0.0350537
190	0x3bc3a2bc	0.005970327
191	0xbdff57c9	-0.124679156
192	0xbc90b0d7	-0.017662449
193	0xbdcf41e2	-0.10119988
194	0xbe2c93f0	-0.16853309
195	0xbe2a7b06	-0.16648492
196	0xbcdacb6e	-0.026708331
197	0xbdf469d2	-0.11934246
198	0x3b86bb28	0.004111666
199	0x3d916059	0.07098455
200	0xbd7ca053	-0.061676335
201	0xbc8251ad	-0.015908087
202	0x3cd8b19f	0.026451884
203	0x3d170fa6	0.036880158
204	0xbd8b85d5	-0.06812636
205	0x3c901f86	0.017593157
206	0x3c3eb5c2	0.011640014
207	0xbbe88870	-0.0070963427
208	0xbd91f5de	-0.071269736
209	0xbdc4ea95	-0.096150555
210	0xbc8a6763	-0.016895002
211	0x3b1d2c0f	0.002398256
212	0xbc76259e	-0.015023617
213	0xb762d7a0	-1.3520854e-05
214	0x3cf4fa13	0.0299044
215	0xbdcbcfbe	-0.09951733
216	0xbe03ba55	-0.12864049
217	0x3cf54f7a	0.029945124
218	0xbd19b6e2	-0.037527926
219	0xbcbd5201	-0.023110392
220	0xbe0f4707	-0.13991939
221	0xbe0284e8	-0.12746012
222	0x3c502e6b	0.012706379
223	0xbd944b2e	-0.07240902
224	0xbca7678c	-0.020435117
225	0xbc611966	-0.013738966
226	0x3e13aca7	0.1442133
227	0x3df178f4	0.11790648
228	0xbd4e5a04	-0.050378814
229	0x3d2770e4	0.040879145
230	0x3dcd33a7	0.100196175
231	0x3e0ba87e	0.13638493
232	0x3dd7640c	0.10517129
233	0x3d95b589	0.07310016
234	0xbba74198	-0.005104255
235	0xbcc210af	-0.023689596
236	0xbd9defb8	-0.07711738
237	0x3da7d45b	0.081948005
238	0x3d3f5791	0.04671437
239	0x3c9b42f6	0.018952828
240	0x3dcf9020	0.101349115
241	0x3d876a50	0.066120744
242	0xbda12282	-0.0786791
243	0xbdb99080	-0.09060764
244	0x3cde3385	0.027124176
245	0x3b46f03a	0.0030355589
246	0x3d991d5a	0.074763015
247	0x3b9fcf99	0.0048770425
248	0x3d7cfff5	0.061767537
249	0xbde0db90	-0.10979378
250	0xbcf8491a	-0.030308295
251	0x3d84a1f4	0.064762026
252	0x3d6780be	0.056519262
253	0x3d94c7a5	0.07264642
254	0x3d1a3173	0.037644815
255	0xbd387af7	-0.045039143

CONV1.2.bias f4 [10]
0	0xbd379668	-0.044821173
1	0x390fd507	0.00013716902
2	0xbd381008	-0.044937164
3	0xbdc41dcb	-0.09575995
4	0x3d57dd37	0.0527012
5	0xbdd255dc	-0.102702826
6	0x3ce237a2	0.027614418
7	0xbd4e5c7d	-0.050381172
8	0xbdd8a80a	-0.10578926
9	0xbde85c3d	-0.11345718

CONV2.0.weight f4 [10, 10, 3, 3]
0	0x3d6833f3	0.056690168
1	0x3dfaa59f	0.12238621
2	0x3d7e28f4	0.062050775
3	0x3d542dda	0.05180154
4	0x3dfd9012	0.12380995
5	0xbd2c0906	-0.042000793
6	0xbe1421c2	-0.14466003
7	0xbd7aa65c	-0.06119381
8	0xbdf251d9	-0.118320175
9	0xbdf34caa	-0.11879857
10	0xbdcd4243	-0.10022404
11	0xbd24696d	-0.040139604
12	0x3ca35bba	0.0199412
13	0xbdf5c1f6	-0.11999886
14	0xbd7c0b26	-0.06153407
15	0xbd8bbe5d	-0.06823418
16	0xbe14909c	-0.14508289
17	0xbd3cb816	-0.046073996
18	0xbcccbd2c	-0.024992548
19	0x3dd48382	0.103766456
20	0x3de7286a	0.11287005
21	0x39d1c270	0.00040008454
22	0xbd01a1ae	-0.03164833
23	0x3d1198db	0.035546165
24	0xbd075f02	-0.03304959
25	0xbdefadf9	-0.117031045
26	0xbdceeda7	-0.10103922
27	0x3de6a625	0.11262158
28	0x3caed860	0.02134341
29	0x3c1fd9e8	0.009756543
30	0x3dfc5d60	0.12322497
31	0xbd6c73dd	-0.057727683
32	0x3d634ad7	0.055491295
33	0xbb8a8e63	-0.0042283996
34	0xbd0332be	-0.032030813
35	0xbdceb9c0	-0.10094023
36	0xbd8c5458	-0.06852025
37	0xbc8a9851	-0.016918333
38	0xbdf47175	-0.11935703
39	0xbe253169	-0.1613213
40	0xbd9eaca2	-0.07747771
41	0xbd402aca	-0.046915807
42	0xbd06b20b	-0.03288464
43	0xbdecfb2d	-0.115713455
44	0xbd6893ae	-0.056781463
45	0x3d1a3143	0.037644636
46	0xbd8327c6	-0.064040706
47	0x3b8d202a	0.004306813
48	0xbd54a9a3	-0.05191959
49	0x3cfecbc5	0.031103024
50	0xbd9dbf0e	-0.077024564
51	0x3d844271	0.06457985
52	0x3d0d339f	0.034473058
53	0xbde1e225	-0.11029462
54	0x3d386ce7	0.045025732
55	0x3da391ae	0.079867706
56	0x3d64ea9f	0.055887815
57	0xbdcaf253	-0.09909501
58	0x3cdb9558	0.026804611
59	0xbc4a9b46	-0.012366122
60	0xbd14affb	-0.03630064
61	0xbd32ca12	-0.04364974
62	0x3b2542e8	0.0025216881
63	0xbdd2a860	-0.10286021
64	0xbdd5e4f8	-0.10444063
65	0x3c36e3ee	0.011162741
66	0x3d7b81e1	0.06140316
67	0x3d91f8f8	0.07127565
68	0xbd89d539	-0.06730122
69	0xbd8e8595	-0.069590725
70	0x3ce37cac	0.02776941
71	0xbcd67df5	-0.026183108
72	0x3d5ddfa2	0.05416835
73	0xbc2fe817	-0.010736487
74	0xbdb03a02	-0.08604814
75	0x3cb1162d	0.02161702
76	0x3d07dcbf	0.033169504
77	0xbdb44a6d	-0.08803258
78	0xbc7cff31	-0.015441702
79	0xbbc68aa8	-0.0060590096
80	0x3b211234	0.00245775
81	0xbcaae05a	-0.020858932
82	0x3dabec7a	0.08394714
83	0xbcdf1abe	-0.027234431
84	0x3d8ac9b3	0.06776752
85	0x3d9362d7	0.071965866
86	0x3dbed538	0.09318012
87	0x3c747f47	0.014922923
88	0xbb7d1747	-0.003861861
89	0xbdba65a5	-0.091014184
90	0xbe1cd453	-0.1531537
91	0xbd36b1b3	-0.04460306
92	0xbda69ddb	-0.08135577
93	0x3c982193	0.018570697
94	0xbe06281b	-0.13101237
95	0xbc660cd1	-0.014041142
96	0xbe3cdc52	-0.1844342
97	0x3cfc530c	0.030801319
98	0x3c1acbb9	0.009447985
99	0xbe0b0bdf	-0.13578747
100	0xbd1a2343	-0.037631284
101	0xbe195ac3	-0.14976029
102	0x3c50972d	0.012731356
103	0xbdca16fd	-0.09867666
104	0xbdfe1d2e	-0.12407909
105	0xbdc9638b	-0.098334394
106	0xbe0f5045	-0.13995464
107	0xbd794ac8	-0.060862333
108	0xbd879d91	-0.0662185
109	0xbdc11dc6	-0.09429507
110	0xbde0a79a	-0.109694675
111	0xbdd68a5c	-0.10475609
112	0xbcd9b0fb	-0.026573649
113	0xbcd4bd80	-0.025969267
114	0x3ce48150	0.027893692
115	0xbd8fe65f	-0.07026362
116	0xbd49257b	-0.04910801
117	0x3d7e0d3c	0.06202434
118	0x3d1fd577	0.039021935
119	0x3d9f8dc8	0.077907145
120	0xbd2f0527	-0.042729523
121	0xbdf084a2	-0.11744048
122	0xbce01a39	-0.027356254
123	0x3cb77e5c	0.02239912
124	0xbd1500a8	-0.03637758
125	0x3d73c089	0.059509788
126	0x3b9840f1	0.0046464135
127	0x3c3c7fe8	0.011505105
128	0xbddfc7fd	-0.109268166
129	0xbe067032	-0.13128737
130	0x3d05ea11	0.032693926
131	0xbda42d53	-0.080164574
132	0x3cd43058	0.025901958
133	0xbd8137ed	-0.06309495
134	0xbd564437	-0.05231115
135	0x3d3971b1	0.04527444
136	0x3d79fd95	0.06103285
137	0x3d84611e	0.06463836
138	0xbd46dfda	-0.048553325
139	0xbde04ceb	-0.10952171
140	0xbd473ece	-0.04864388
141	0x3d0a6d5c	0.0337957
142	0xbda4c519	-0.08045406
143	0x3d13e132	0.036103435
144	0x3d1090c2	0.0352943
145	0x3dacb9bc	0.084338635
146	0x3d8611f6	0.065463945
147	0x3dac2868	0.084061444
148	0xbd5e0fa9	-0.054214153
149	0xbd752fc4	-0.059860006
150	0xbd3f67ae	-0.046729736
151	0x3ce9ed0b	0.028555414
152	0x3dbe3229	0.09286911
153	0x3bd7e12a	0.006588121
154	0x3da3138d	0.079627134
155	0x3d9cfbf7	0.07665246
156	0xbcfbe695	-0.030749599
157	0x3c3fa283	0.011696461
158	0x3d857019	0.065155216
159	0x3daaa8ff	0.08333015
160	0x3d8b4a03	0.06801226
161	0xbc5aab0b	-0.013346444
162	0x3da5cfb9	0.080962606
163	0xbd32a356	-0.0436128
164	0x3d250208	0.04028514
165	0x3c1e89e8	0.009676434
166	0x3bc3a899	0.005971026
167	0x3d865d9a	0.06560822
168	0x3ca8febe	0.020629283
169	0x3d63b0ac	0.05558841
170	0xbd9bde4a	-0.07610758
171	0x3d2a4f17	0.041579332
172	0xbd49fa54	-0.049310997
173	0xbd35618b	-0.044282477
174	0xbc524230	-0.012833163
175	0xbd8ec23a	-0.069706395
176	0xbb14e8e0	-0.0022721812
177	0x3de0320e	0.10947047
178	0x3d33f184	0.0439315
179	0x3ce677f9	0.02813338
180	0xbe0f43fc	-0.13990778
181	0xbbd20ff5	-0.0064105936
182	0xbdfceb89	-0.12349612
183	0xbda0e277	-0.07855695
184	0xbc8ce52b	-0.01719912
185	0xbdfea344	-0.12433484
186	0xbdc2ac34	-0.095055014
187	0xbe3287ee	-0.17434666
188	0x3cd7c538	0.026339158
189	0xbd29d9a2	-0.041467316
190	0x3de382c6	0.111089274
191	0x3d42e85b	0.047584873
192	0xb92f80b6	-0.00016737249
193	0x3c2dc255	0.010605414
194	0xbca14c88	-0.019689813
195	0x3ccdb821	0.025112214
196	0xbd8579c1	-0.06517363
197	0x3d39d92d	0.04537313
198	0x3d955baf	0.07292878
199	0xbdf52ab4	-0.119710356
200	0xbba3fd70	-0.0050045773
201	0xbe08f612	-0.13375118
202	0x3d1d780d	0.038444567
203	0xbe1ae1b8	-0.15125167
204	0x3ceca74d	0.028888369
205	0xbd567be8	-0.05236426
206	0xbde19554	-0.1101481
207	0xb8d8895a	-0.00010325266
208	0x3c779ec1	0.0151135335
209	0x3d0f273b	0.034949522
210	0x3d8b77c0	0.0680995
211	0x3bde24e4	0.0067793
212	0xbd860949	-0.0654474
213	0x3d616428	0.055027157
214	0xbde5670a	-0.11201294
215	0xbd37ab58	-0.04484114
216	0x3d8577c8	0.06516987
217	0xbd84fa39	-0.06493039
218	0x3d86c252	0.065800324
219	0xbce2235b	-0.02760475
220	0xbc45b19d	-0.012066272
221	0xbdc531d3	-0.09628644
222	0xbdcea384	-0.10089782
223	0x3d873359	0.06601591
224	0x3d23f827	0.04003158
225	0x3cb8fbc9	0.022580998
226	0x3d41b8aa	0.04729525
227	0xbcc4eaa9	-0.024037676
228	0x3dbf4f42	0.09341289
229	0xbcc0c5e4	-0.023531862
230	0x3c20ac22	0.009806665
231	0xbbbde1fc	-0.0057947617
232	0xbd06d39c	-0.03291665
233	0xbd28b8fb	-0.041192036
234	0x3ddf1724	0.108930856
235	0x3d8828a1	0.06648374
236	0x3b1764d0	0.002310086
237	0x3ddd4a01	0.10805131
238	0x3da4f492	0.080544606
239	0x3d8dfd19	0.0693304
240	0x3e128c74	0.14311391
241	0x3e0b9476	0.13630852
242	0x3d53a359	0.051669452
243	0x3c659e63	0.014014813
244	0x3d87d75e	0.06632875
245	0x3dbfbe6b	0.09362491
246	0xbda8ba91	-0.0823871
247	0x3ce6579c	0.028117947
248	0x3d3c8337	0.046023574
249	0xbc13778b	-0.009000669
250	0x3d83570d	0.06413088
251	0xbc56ceb0	-0.013110802
252	0xbc17fdfe	-0.009276865
253	0x3cd17733	0.025569534
254	0xbbd4ba97	-0.00649197
255	0xbdf59993	-0.119921826

CONV2.0.bias f4 [10]
0	0xbb51450d	-0.0031932027
1	0x3d9bd1da	0.076083854
2	0xbd7b2e17	-0.06132325
3	0x3db95e8f	0.09051239
4	0x3d6e5670	0.058187902
5	0x3d4183e9	0.04724494
6	0xbae7ede5	-0.00176948
7	0x3d24fa6f	0.040277895
8	0xbda35012	-0.079742566
9	0x3d94cd5f	0.07265734

CONV2.2.weight f4 [10, 10, 3, 3]
0	0x3db2b48e	0.08725844
1	0x3dcd9ffc	0.1004028
2	0x3ddf4a41	0.10902835
3	0x3d832d78	0.06405157
4	0xbca9b2e7	-0.02071519
5	0xbd63ceae	-0.055617027
6	0x3dc1d91d	0.09465239
7	0x3d14cbde	0.036327235
8	0x3c7cde76	0.015433898
9	0xbd69528c	-0.05696349
10	0x3d29d5e0	0.041463733
11	0x3d75304a	0.059860505
12	0xbdadc94d	-0.08485661
13	0x3d995739	0.074873395
14	0x3bf31d2e	0.00741925
15	0x3d1472c2	0.036242254
16	0xbcb44f2f	-0.022010414
17	0xbdc6c023	-0.09704616
18	0xbc486e92	-0.012233393
19	0x3cf0355a	0.029322315
20	0x3da671e7	0.08127194
21	0x3c1e5995	0.009664913
22	0x3da50d98	0.080592334
23	0x3d36be02	0.0446148
24	0xbdcd29e1	-0.100177534
25	0xbda361da	-0.07977648
26	0xbddda81a	-0.108230785
27	0x3c1ca03d	0.009559688
28	0xbdb0dd15	-0.08635918
29	0xbb676b01	-0.0035311582
30	0x3cf8f812	0.030391727
31	0x3d1a44e0	0.03766334
32	0x3dc6430c	0.09680757
33	0xbd6f8d38	-0.058484286
34	0xbdb9873e	-0.090589985
35	0xbcf66278	-0.03007625
36	0x3d5688d7	0.052376594
37	0xbde5d0e7	-0.112214856
38	0xbc478cda	-0.012179578
39	0xbc523f6f	-0.012832507
40	0xbdaffab4	-0.0859274
41	0x3db8dcca	0.09026487
42	0xbdee0c7f	-0.11623477
43	0x3d5fcbf1	0.054637853
44	0xbd17c88d	-0.037056495
45	0x3afccb22	0.0019286613
46	0x3cc90b79	0.024541603
47	0x3d215e53	0.039396595
48	0xbda1a0c7	-0.07891994
49	0xbc2e7d77	-0.01065003
50	0xbd20a287	-0.0392175
51	0xbba9f705	-0.0051869177
52	0xbc25958c	-0.010106456
53	0xbd6b21d7	-0.05740532
54	0x3d5f1637	0.054464545
55	0xbcd99ac6	-0.02656306
56	0x3dd3a7ca	0.103347376
57	0x3e0f1ae3	0.139751
58	0x3e0aeb0d	0.13566227
59	0x3dd45898	0.103684604
60	0x3c0cbc42	0.008589806
61	0xba87f732	-0.0010373353
62	0xbcd21cc2	-0.025648478
63	0x3d944678	0.07240003
64	0x3c43cca5	0.0119506465
65	0xbd6d795a	-0.057977058
66	0xbdc564f8	-0.09638399
67	0x3d88db10	0.06682408
68	0x3cc6b601	0.024256708
69	0x3d96aaca	0.07356794
70	0x3c81421c	0.015778594
71	0x3d9f6bfa	0.07784267
72	0x3d95efd8	0.07321137
73	0xbd443d43	-0.047909986
74	0x3d94e1ef	0.07269656
75	0x3d8e2741	0.06941081
76	0x3db87fda	0.09008761
77	0x3d0bf0f5	0.03416534
78	0x3d896d56	0.06710307
79	0x3d9beb47	0.07613235
80	0x3d4ee5ba	0.050512053
81	0xbcbad507	-0.022806657
82	0xbdf14a24	-0.11781719
83	0x3d1e81fc	0.03869818
84	0xbd844442	-0.06458332
85	0xbd3761c9	-0.04477099
86	0x3d6ea518	0.058262914
87	0x3d8d5221	0.069004305
88	0xbdf2f590	-0.118632436
89	0xbded408e	-0.115845785
90	0xbb9d3529	-0.004797597
91	0xbd4a2cc7	-0.04935911
92	0xbd2b06ef	-0.04175466
93	0xbc4b1080	-0.012394071
94	0x3d0abce4	0.033871546
95	0x3d450266	0.04809799
96	0xbdc46df9	-0.09591288
97	0x3daef98a	0.085436895
98	0x3c912b0a	0.017720718
99	0xbde5e8a1	-0.11226011
100	0xbdaed42e	-0.08536564
101	0x3d9ddd2b	0.077082
102	0xbddfb1d1	-0.10922588
103	0x3d8cd3e6	0.06876354
104	0x3d6a9533	0.057271194
105	0xbba8d0c0	-0.005151838
106	0xbdbfa038	-0.09356731
107	0x3b61fd76	0.003448335
108	0x3d3049b9	0.043039057
109	0xbd3072c9	-0.043078218
110	0xbd7b98ef	-0.061425146
111	0x3c2e09af	0.010622426
112	0xbdecf304	-0.11569789
113	0x3d217366	0.039416693
114	0xbdff399c	-0.1246216
115	0xbdb01d0d	-0.08599291
116	0xbdcf6344	-0.10126355
117	0xbd0718c2	-0.032982595
118	0x3de5c8ce	0.11219941
119	0x3dea41e9	0.114383526
120	0xbdb98bd7	-0.090598755
121	0x3d806d7a	0.06270881
122	0xbc59053d	-0.013245878
123	0x3ddfe668	0.109326184
124	0x3d0e0dbb	0.034681063
125	0x3c742837	0.014902166
126	0xbd8b09f7	-0.0678901
127	0x3d56305a	0.052292205
128	0xbb82a532	-0.003986978
129	0xbd51210a	-0.0510569
130	0xbdb161d5	-0.08661238
131	0xbde4c004	-0.111694366
132	0xbda880d0	-0.08227694
133	0xbd9d4a0a	-0.076801375
134	0xbd1dcc38	-0.038524836
135	0xbd8581e7	-0.065189175
136	0x3c75e9f7	0.015009395
137	0xbccc7496	-0.024957936
138	0x3d19ddb9	0.037564967
139	0x3cd6d909	0.026226537
140	0x3d20f3a0	0.03929484
141	0xbddf7464	-0.109108716
142	0xbd1ae7d5	-0.03781875
143	0xbdc714c6	-0.09720759
144	0xbe5056ed	-0.2034566
145	0xbe244ef5	-0.16045745
146	0xbe6d553f	-0.2317705
147	0xbcd330bc	-0.025780074
148	0xbdffbcbd	-0.12487171
149	0x3d8ae971	0.06782807
150	0xbde56c03	-0.11202242
151	0xbcfbe15d	-0.03074711
152	0xbd11b5c7	-0.035573747
153	0x3d28778f	0.041129645
154	0xbc30a096	-0.010780474
155	0x3d992913	0.074785374
156	0xbc901e93	-0.017592704
157	0xbd15d1de	-0.036577098
158	0x3ce70073	0.028198456
159	0x3d54363e	0.051809542
160	0x3db6931e	0.08914779
161	0x3d844f19	0.06460399
162	0xbc82d60e	-0.01597121
163	0x3d1b7845	0.037956495
164	0x3d8ccaf8	0.06874651
165	0x3dd03301	0.10165978
166	0xbd61bdfe	-0.05511283
167	0x3ce22bce	0.027608778
168	0x3d945a74	0.07243815
169	0x3d9edc68	0.07756883
170	0x3c52adb3	0.012858796
171	0x3d504e0e	0.05085569
172	0xbd1e6d08	-0.0386782
173	0xbbf5dcc3	-0.0075031235
174	0xbdf5ecb9	-0.12008042
175	0xbdafffa7	-0.08593684
176	0xbe083391	-0.13300921
177	0xbde20e04	-0.110378295
178	0xbd05899e	-0.032601945
179	0x3cbdc503	0.023165232
180	0xbce9e579	-0.028551804
181	0x3def3ae4	0.11681154
182	0x3da05faf	0.0783075
183	0x3df4ba32	0.119495764
184	0x3da4d2d7	0.08048027
185	0x3cccd9d1	0.025006207
186	0xbd5265cd	-0.051366616
187	0xbd50d249	-0.050981794
188	0x3ba05006	0.004892352
189	0x3d705fad	0.058684994
190	0x3d9a92fe	0.07547568
191	0xbcf440ab	-0.029815992
192	0xbcb887db	-0.022525718
193	0x3ce9e622	0.028552119
194	0x3d65944c	0.05604963
195	0x3d703f6f	0.058654245
196	0x3d9a5056	0.07534854
197	0x3cf34be9	0.029699283
198	0xbde42e9b	-0.11141702
199	0xbd9bc05c	-0.07605049
200	0xbd9110dc	-0.07083294
201	0xbd99ab4a	-0.07503374
202	0xbd17bc68	-0.037044913
203	0xbdf7cc2e	-0.12099491
204	0xbdbdb2cd	-0.09262619
205	0x3a397764	0.00070749805
206	0x3cb09b78	0.021558508
207	0xbd94acaa	-0.072594956
208	0x3d46ac6a	0.04850427
209	0xbda11134	-0.07864609
210	0xbdcff211	-0.101535924
211	0x3c90ef22	0.017692152
212	0xbc451b74	-0.012030471
213	0x3d569965	0.052392382
214	0xbd42eed8	-0.04759106
215	0xbdaff256	-0.08591144
216	0x3cd525b9	0.026018964
217	0xbddf3b0a	-0.10899933
218	0x3dbd620f	0.09247219
219	0x3db9138b	0.09036931
220	0x3d249628	0.040182263
221	0x3c9c372f	0.019069282
222	0xba0e0581	-0.000541769
223	0x3d9344fc	0.07190892
224	0x3db386b5	0.08765928
225	0x3d716f8b	0.058944266
226	0x3bc1b8a7	0.005911905
227	0xbd802c82	-0.06258489
228	0x3d593f1b	0.053038698
229	0x3cfff5d9	0.031245159
230	0xbdb45023	-0.08804347
231	0xbd5f3f6b	-0.05450384
232	0xbdf7ede2	-0.121059194
233	0xbdf9589c	-0.12175104
234	0xbda336e6	-0.079694554
235	0xbd8f029e	-0.06982921
236	0xbe0563c9	-0.13026346
237	0x3d80717a	0.06271644
238	0x3e073915	0.13205369
239	0x3def3ef1	0.11681927
240	0x3d9e75e2	0.07737328
241	0x3db223be	0.086982235
242	0x3d5feaa7	0.05466714
243	0xbe0f2dee	-0.13982365
244	0x3d81199b	0.06303712
245	0xbd807752	-0.062727585
246	0xbd60bb90	-0.054866374
247	0xbd4964c3	-0.04916836
248	0xbe09520e	-0.13410208
249	0xbdf6cd29	-0.1205085
250	0xbcee17f2	-0.029064152
251	0xbdd54b07	-0.10414701
252	0xbd5b530f	-0.053546008
253	0xbcf2094c	-0.029545449
254	0x3d47064c	0.04858999
255	0xbd7dfbd1	-0.06200773

CONV2.2.bias f4 [10]
0	0x3c88d507	0.016703142
1	0x3dc57dc0	0.096431255
2	0xbd255830	-0.040367305
3	0x3d391877	0.045189347
4	0xbd379f31	-0.04482955
5	0xbd3ac9df	-0.045602676
6	0x3ddf2098	0.10894889
7	0x3d3d58bc	0.0462272
8	0x3b8ae785	0.004239025
9	0xbdae1bad	-0.085013725

Classifier.1.weight f4 [10, 3610]
0	0xbcaed116	-0.021339934
1	0x3c729167	0.014805174
2	0x3c4fc1a9	0.0126804495
3	0x3c574859	0.013139808
4	0x3c62706b	0.013820748
5	0xbc4f71be	-0.012661396
6	0x3b9cf2b0	0.004789673
7	0xbc124716	-0.008928081
8	0x3bc8479a	0.006112051
9	0xbc3d2242	-0.011543812
10	0x3c64a7b7	0.013956002
11	0xbc22dc51	-0.009940223
12	0xbb693c06	-0.0035588755
13	0xbb72e29d	-0.0037061342
14	0x3c9dcd15	0.01926283
15	0xbc4a7178	-0.012356155
16	0xbc45ab45	-0.01206476
17	0x3a85ab7c	0.0010198201
18	0xbd3341b4	-0.04376383
19	0xbd12762a	-0.03575722
20	0x3c23ed50	0.01000531
21	0x3b58b749	0.003306823
22	0x3987d2c9	0.00025906254
23	0x3bd747a1	0.006569818
24	0x3c47e735	0.01220112
25	0xbbc1fe9c	-0.0059202444
26	0x3c143493	0.009045738
27	0x3c9a0018	0.018798873
28	0x3c6f5521	0.014607699
29	0xbb869ece	-0.0041082865
30	0x3b605451	0.0034229944
31	0xbc62ea12	-0.013849752
32	0xbc47d5fe	-0.012197016
33	0x3bf6aef0	0.0075281784
34	0xb8535ac1	-5.039084e-05
35	0x3c42471c	0.011857774
36	0x3b43b1a0	0.0029860511
37	0xbc48737f	-0.012234568
38	0xbcac39a7	-0.021023585
39	0xbbb8fc59	-0.0056453166
40	0x3cb3b20e	0.021935489
41	0xbc343371	-0.010998593
42	0x3c2489ab	0.010042588
43	0x3c3e1540	0.011601746
44	0xbc1b09d3	-0.0094627915
45	0xb84d9ac0	-4.901993e-05
46	0x3c0549cd	0.008135271
47	0x3c310deb	0.010806541
48	0xbb1f755b	-0.0024331424
49	0x3b866f4b	0.0041026226
50	0x3c12cf05	0.00896049
51	0xbc4838c8	-0.012220569
52	0x3c817168	0.015801147
53	0x3b9a5449	0.0047097546
54	0x3bc69900	0.0060607195
55	0xbb2fa119	-0.0026798903
56	0xbc4ca730	-0.0124910325
57	0xbd16f8ff	-0.036858555
58	0x3bb4412f	0.0055009346
59	0xbb157bf4	-0.0022809478
60	0x3bd22339	0.0064128903
61	0x3cb4212d	0.021988476
62	0x3a469d63	0.0007576553
63	0x3c80d7f8	0.015727982
64	0x3c02578e	0.007955445
65	0x3c88890f	0.016666917
66	0x3966e0af	0.0002201821
67	0x3c82dc79	0.01597427
68	0xbafd2682	-0.0019313844
69	0x3c8cc24b	0.01718249
70	0x3c43a189	0.011940368
71	0x3bcc811c	0.006240977
72	0x3c271996	0.010198971
73	0x3b43036f	0.0029756685
74	0x3c0f8c2f	0.00876145
75	0x3babe817	0.005246173
76	0xbd14985c	-0.036278114
77	0x3b9f6b01	0.004865051
78	0x3c73a8bd	0.014871773
79	0x3b573296	0.0032836548
80	0x3c7a26de	0.015268056
81	0x3a985497	0.001162189
82	0x3adc40b4	0.0016803951
83	0x3bce48cf	0.0062953006
84	0x3c9f1ea2	0.019423787
85	0xbb3e7e9a	-0.002906716
86	0xbbd7e033	-0.006588006
87	0x3b04ad65	0.0020244953
88	0xbc2b8d33	-0.010470676
89	0x3be9d562	0.007136033
90	0xbaef9c6c	-0.001828087
91	0x3c3816dd	0.01123592
92	0xbbed3a2e	-0.0072396016
93	0x3c2cb1f6	0.010540476
94	0xbc83a2c1	-0.016068818
95	0xbd1d0610	-0.03833586
96	0xbbc12e75	-0.0058954307
97	0x3bbd6d65	0.005780863
98	0x3c4d17ea	0.012517909
99	0xbc30aec6	-0.010783857
100	0x3c6a04fe	0.014283417
101	0x3af096a3	0.001835544
102	0xbc2388af	-0.009981318
103	0x3ab41c0c	0.0013741269
104	0xbc1bb163	-0.0095027415
105	0x3c9122e9	0.017716842
106	0x3c7dd3c3	0.015492382
107	0x3c831a5f	0.016003786
108	0x3bd014da	0.006350142
109	0x3b0a4c4b	0.0021102603
110	0x3bc91419	0.006136429
111	0x3c7ac603	0.015305999
112	0x3b9fdcec	0.004878631
113	0x3c41f2d6	0.011837682
114	0xbd579dc0	-0.052640676
115	0xbb95d273	-0.0045722066
116	0x3c0117d6	0.007879218
117	0xbb9d6732	-0.0048035616
118	0x3b6acf6b	0.0035829197
119	0x3ca22266	0.019791793
120	0xbbe32823	-0.006932275
121	0x3c9879fd	0.018612856
122	0x3ba3fa03	0.005004169
123	0xbc3500fb	-0.011047597
124	0x3a2326e6	0.0006223753
125	0xbc0e7c11	-0.008696572
126	0x3ae79c81	0.0017670543
127	0x3c842bc0	0.016134143
128	0x3aad3c67	0.0013216854
129	0xbc0e75c8	-0.008695073
130	0xbba2ccf6	-0.004968281
131	0xbb893020	-0.004186645
132	0xbc7497d2	-0.014928775
133	0xbd2ed628	-0.042684704
134	0xbc0b29f6	-0.008493891
135	0x3cb67a7c	0.022275202
136	0x3c3e1e4f	0.011603906
137	0x3acfe385	0.0015860653
138	0xbc2b642c	-0.010460895
139	0x3a5eab27	0.00084941316
140	0xbb5658b3	-0.0032706677
141	0xbbb41a62	-0.005496309
142	0xba896840	-0.001048334
143	0x3bab0ebc	0.0052202623
144	0xbc079bcc	-0.008276891
145	0x3c48aa7e	0.01224768
146	0x3999ef42	0.00029360695
147	0x3b131a95	0.0022446264
148	0xbb0265a9	-0.001989702
149	0x3c86b852	0.016445313
150	0x3c3020b5	0.010749985
151	0xbbd3a93a	-0.0064593824
152	0xbd3d3507	-0.04619315
153	0x3c14e7b2	0.009088444
154	0x3ca7d8aa	0.020489056
155	0xba0e19fc	-0.0005420742
156	0x3be29d61	0.0069157337
157	0x3ad49fac	0.0016221902
158	0xbc648507	-0.013947732
159	0x3b95f89a	0.0045767548
160	0x3c61bb6d	0.013777596
161	0x3a12aca1	0.0005595182
162	0xbc592af3	-0.013254869
163	0x3c3eabf7	0.011637679
164	0xbc821ddc	-0.015883379
165	0x3c075777	0.008260599
166	0x3b46fe8e	0.0030364129
167	0x3b4fcba4	0.0031707073
168	0x3b7d031a	0.0038606585
169	0x3c481629	0.012212315
170	0xbc39a138	-0.011329941
171	0xbd7e1f03	-0.062041294
172	0x3c6cb1d1	0.014446692
173	0xbbd3e98a	-0.006467049
174	0x3ca77709	0.020442503
175	0x3ca89fdb	0.020584038
176	0x3bcb1477	0.006197508
177	0xbc156fc0	-0.009120882
178	0x3bd48a84	0.006486239
179	0xbc086a13	-0.008326071
180	0x3befd0ae	0.0073185777
181	0xbc86ac07	-0.01643945
182	0xbb489d94	-0.0030611502
183	0xbb9b1751	-0.004733004
184	0xbc27ba89	-0.010237345
185	0xbae53be0	-0.0017489158
186	0x3a9f99c1	0.001217656
187	0xbc384274	-0.011246312
188	0x3ace7915	0.0015752638
189	0x3c225878	0.009908788
190	0xbd4e6284	-0.05038692
191	0xbc682e46	-0.014171189
192	0x3c9969d9	0.01872723
193	0xbb158434	-0.0022814395
194	0x3b02122e	0.0019847262
195	0x3c9eb93e	0.01937544
196	0xba612638	-0.0008588764
197	0xbc2f0e35	-0.01068454
198	0x3c54d768	0.01299081
199	0x3c1afaeb	0.009459238
200	0xbba18671	-0.0049293567
201	0x3c4202e5	0.01184151
202	0x3c4c3832	0.01246457
203	0x3bbbca0b	0.0057308725
204	0xbc0893bd	-0.008336005
205	0xbc05b2e1	-0.008160324
206	0xbc3d0bff	-0.011538505
207	0x3c262e28	0.01014284
208	0x3c40d166	0.0117686745
209	0xbd5dc937	-0.05414697
210	0x39afc6bc	0.0003352667
211	0x3be3d72b	0.0069531403
212	0x3bc0e059	0.0058861193
213	0xba03b336	-0.0005023958
214	0xbbe29a34	-0.006915355
215	0x3c925dd8	0.017867014
216	0x3c899d4d	0.01679864
217	0x3bdfcd4a	0.0068298923
218	0x3bf4c4c3	0.007469745
219	0xbc14c774	-0.009080756
220	0x3bf9c847	0.007622752
221	0x3b82a638	0.0039871
222	0xbc60628e	-0.013695372
223	0xbc08682c	-0.008325618
224	0xbc10ef6c	-0.008846145
225	0x3ca32c09	0.019918459
226	0x3b327826	0.0027232259
227	0x3c2b8833	0.010469484
228	0xbd0a64a1	-0.033787373
229	0xbbb1b6df	-0.0054234113
230	0xbbe278cb	-0.0069113723
231	0xba8b646f	-0.001063479
232	0x3c4c7e16	0.012481233
233	0xbb129e97	-0.002237236
234	0x3c4d6e6e	0.0125385355
235	0x3c0079dd	0.0078415545
236	0xbc2bd8e4	-0.0104887225
237	0xb934db3e	-0.00017247812
238	0xbb792fcb	-0.0038022872
239	0xbc8101c0	-0.015747905
240	0xbc1c4359	-0.009537541
241	0xbc5f84a9	-0.0136424685
242	0xbc28b4d4	-0.010297019
243	0xbac5c84d	-0.0015089602
244	0xba92d34c	-0.0011201887
245	0xbbbc496c	-0.0057460573
246	0x3a200b61	0.0006105211
247	0xbd2f9397	-0.042865362
248	0x3b53ce0f	0.0032318865
249	0x3c3a1775	0.011358132
250	0xbc241144	-0.010013882
251	0xbab85a89	-0.0014065068
252	0xba6f350d	-0.00091250316
253	0xbc271082	-0.010196807
254	0xbc47a2a4	-0.012184773
255	0xbc5b0587	-0.013368017

Classifier.1.bias f4 [10]
0	0xbd152f67	-0.03642216
1	0x3c5aa5f7	0.013345233
2	0xbc004a76	-0.007830253
3	0x3c86db6c	0.01646205
4	0x3c1e8cef	0.009677156
5	0x3c481b08	0.012213476
6	0x3bac44ef	0.005257241
7	0x3c26d959	0.010183656
8	0xbd0bb191	-0.034104887
9	0xbc0dba77	-0.008650414
